Modelnya/lstm_model.tflite (tflite, 129144 bytes, 6 tensors)

arith.constant3 f4 [1, 32]
-0.229549 0.6567115 -0.8144236 -0.55924773 -0.33765 -0.5440081 -0.4531688 0.37949
-0.66469514 -0.41500515 0.62255514 -0.74289185 -0.2574533 -0.42221227 -0.16705592 1.070506
0.76915884 -0.34422654 -0.2356054 -0.5587845 -0.75044864 0.80419046 -0.5848953 -0.7857193
-0.3410525 -0.23042172 0.7078298 1.6736091 0.7550985 -0.373724 -0.11026829 -0.997848
00000000: e50e 6bbe 3f1e 283f 117e 50bf dc2a 0fbf
00000010: 76e0 acbe 1d44 0bbf be05 e8be 834c c23e
00000020: 7629 2abf 8e7b d4be c65f 1f3f 292e 3ebf
00000030: ebd0 83be 352c d8be b510 2bbe 5706 893f
00000040: 98e7 443f 763e b0be 8b42 71be 800c 0fbf
00000050: 671d 40bf 6ddf 4d3f b3bb 15bf e624 49bf
00000060: 6f9e aebe acf3 6bbe 5534 353f d338 d63f
00000070: 234e 413f c158 bfbe 57d4 e1bd f772 7fbf

arith.constant4 f4 [32, 64]
0.11275195 -0.3311512 0.3259835 0.2493491 -0.11300417 0.17518349 -0.38668436 -0.078675516
0.09010273 -0.19103435 -0.39881182 -0.10487615 -0.029010508 0.31116632 -0.179944 -0.28645548
-0.11139625 0.47736108 -0.18797743 0.24685006 0.008100027 -0.04750081 0.07905644 0.15067703
-0.38492018 -0.30778944 -0.111786745 -0.13661541 -0.074882336 -0.29341546 -0.049598258 0.60897386
0.11973231 0.2338577 0.23799357 -0.038423788 -0.14223099 0.3623043 0.050149176 0.4749373
0.35036096 0.117469974 -0.008496852 -0.49718323 0.11498032 0.19860907 -0.2959536 -0.19426915
0.15889555 -0.17570981 0.37407562 0.0012296052 -0.0076138293 -0.07516317 -0.06943154 0.16755128
0.15046225 -0.10261754 -0.22887856 0.42873213 -0.19761126 0.113729976 -0.042895146 -0.058031682
0.10816921 0.45535734 0.08982951 0.105310366 -0.22233817 -0.7125258 0.24384189 0.30749735
-0.49108332 -0.38284856 0.19800326 0.078339435 0.14791182 -0.32133237 -0.15257522 -0.014037369
-0.40097144 -0.020456463 0.17538401 -1.4842275 -0.1798609 -0.343339 0.40359136 -0.30955067
0.30924597 0.04203666 -0.041790813 0.15858485 -0.12036912 0.99412495 0.36273545 0.03523496
0.5375042 -0.21195051 -0.098066375 -0.14614668 -0.27696288 0.07341351 -0.69717336 -0.0043188874
-0.10891942 0.079770625 0.21338098 0.23040716 -0.9169618 0.08461796 0.34921902 0.5469548
-0.05292367 -0.31949618 0.3746653 -0.37838465 0.17691287 0.31647372 -0.5875757 0.597662
0.103585325 0.44628194 0.32373992 -0.20523773 0.43521512 0.014917281 -0.045386802 -0.17975512
0.07040821 -0.15906096 0.08911417 0.2014307 -0.13811746 -0.21559186 -0.43404114 -0.38603237
-0.09162106 -0.16423015 -0.40433776 -0.11687574 0.17340973 0.1507201 -0.14679706 -0.10661646
-0.054640442 0.38273907 -0.22496471 -0.158997 0.104022756 0.11478078 0.063666016 -0.038751386
-0.17958377 -0.04395189 0.23419172 0.12567848 -0.097875856 -0.11291376 -0.14811344 -0.029488802
0.29959607 0.2152516 0.087671876 -0.095662855 0.024803536 0.410072 -0.06503382 0.20288871
0.07043958 0.13695893 0.16492122 0.028316535 0.261609 0.31437987 -0.36675856 0.24193603
-0.05540181 -0.20997106 -0.101312615 -0.061134752 -0.2800536 0.19182912 -0.15591367 -0.055831544
0.13027535 -0.07345776 -0.4314002 0.27531347 -0.13314506 0.15831566 -0.28179312 0.02270116
-0.09995858 -0.0476918 0.16227348 -0.115918875 0.33800414 -0.029424831 0.56466633 0.20594893
0.26648247 0.18895386 -0.14113583 0.076031774 0.55626327 0.87085253 -0.20830974 -0.016082533
-0.15739356 0.15330622 0.07818719 0.36800024 0.7612279 0.09664586 0.12061076 0.16101214
-0.09793518 -0.30080947 -0.034936305 -0.07250447 0.099837445 -0.28228772 -0.67216086 -0.6577164
-0.26949045 0.15160435 -0.34178674 0.32894552 -0.032816228 -0.103335634 -0.9868633 -0.29835135
0.6577039 0.4351877 -0.050599553 0.12766089 0.100880414 -0.20801654 0.12038365 -0.082075246
-0.31269675 0.08092857 0.6002393 0.2896216 -0.18051879 -0.28804457 0.2790071 -0.049781173
-0.16091812 0.11195444 -0.023000339 0.13888703 -0.08790986 0.07913775 0.33231464 -0.27185124
00000000: 7fea e63d a68c a9be 4fe7 a63e 5f55 7f3e
00000010: bb6e e7bd 4d63 333e 7efb c5be a120 a1bd
00000020: c887 b83d 829e 43be 1031 ccbe 4fc9 d6bd
00000030: 72a7 edbc 3151 9f3e 3d43 38be 4baa 92be
00000040: b823 e4bd ac68 f43e 287d 40be 43c6 7c3e
00000050: fab5 043c 3690 42bd 58e8 a13d 144b 1a3e
00000060: 4214 c5be 9496 9dbe 73f0 e4bd e9e4 0bbe
00000070: e95b 99bd 8d3a 96be 8b27 4bbd b6e5 1b3f
00000080: 3736 f53d 6578 6f3e 96b4 733e 4362 1dbd
00000090: 00a5 11be f37f b93e 3969 4d3d fb2a f33e
000000a0: 8362 b33e 1994 f03d 6136 0bbc cd8e febe
000000b0: cd7a eb3d 2d60 4b3e 3b87 97be 7eee 46be
000000c0: 84b5 223e 46ed 33be d786 bf3e b42a a13a
000000d0: 6e7d f9bb 26ef 99bd 2032 8ebd 9092 2b3e
000000e0: c712 1a3e 2529 d2bd 245f 6abe c782 db3e
000000f0: 9b5a 4abe 43eb e83d d2b2 2fbd a1b2 6dbd
00000100: d287 dd3d 9924 e93e 89f8 b73d f6ac d73d
00000110: 9eac 63be 1768 36bf b0b1 793e 4b70 9d3e
00000120: 466f fbbe ba04 c4be 5ec1 4a3e 6d70 a03d
00000130: 3276 173e ad85 a4be ae3c 1cbe fefc 65bc
00000140: 214c cdbe 5094 a7bc de97 333e 2bfb bdbf
00000150: 752d 38be 21ca afbe 87a3 ce3e 6d7d 9ebe
00000160: 7d55 9e3e a22e 2c3d d82c 2bbd 1164 223e
00000170: 1684 f6bd f97e 7e3f 76b8 b93e 8952 103d
00000180: e099 093f 8e09 59be 06d7 c8bd 7aa7 15be
00000190: 14ce 8dbe d359 963d f479 32bf 7485 8dbb
000001a0: 2511 dfbd c85e a33d 8b80 5a3e dbef 6b3e
000001b0: 02be 6abf 2e4c ad3d d6cc b23e 3b05 0c3f
000001c0: 7dc6 58bd 0195 a3be 21d4 bf3e a2bb c1be
000001d0: a628 353e d808 a23e 5c6b 16bf 6000 193f
000001e0: 8b24 d43d 117f e43e 3dc1 a53e d729 52be
000001f0: 84d4 de3e 9d67 743c 83e7 39bd ba11 38be
00000200: 2e32 903d e0e0 22be 7d81 b63d d943 4e3e
00000210: aa6e 0dbe 1dc4 5cbe a43a debe 09a6 c5be
00000220: d3a3 bbbd f32b 28be 5c05 cfbe 8c5c efbd
00000230: 5292 313e 5f56 1a3e f851 16be bb59 dabd
00000240: a8ce 5fbd 60f6 c33e 265d 66be 1cd0 22be
00000250: e209 d53d 3012 eb3d 5463 823d c6b9 1ebd
00000260: cfe4 37be e606 34bd f4cf 6f3e dcb1 003e
00000270: 2373 c8bd 543f e7bd 0dab 17be 8092 f1bc
00000280: a864 993e ea6a 5c3e 508d b33d e3ea c3bd
00000290: c930 cb3c f5f4 d13e 7430 85bd 0fc2 4f3e
000002a0: a042 903d f63e 0c3e 1ce1 283e 14f8 e73c
000002b0: 9df1 853e 66f6 a03e c7c7 bbbe 14be 773e
000002c0: 02ed 62bd a702 57be fd7c cfbd 6f68 7abd
000002d0: 2f63 8fbe da6e 443e d5a7 1fbe 9eaf 64bd
000002e0: e766 053e 0671 96bd 7de0 dcbe e3f5 8c3e
000002f0: 2e57 08be 801d 223e 3047 90be c8f7 b93c
00000300: 16b7 ccbd 7a58 43bd 052b 263e e066 edbd
00000310: e10e ad3e 580c f1bc f98d 103f 47e4 523e
00000320: 6470 883e 1f7d 413e e985 10be 8cb6 9b3d
00000330: 4567 0e3f 31f0 5e3f 264f 55be 84bf 83bc
00000340: c72b 21be 4efc 1c3e 9b20 a03d 876a bc3e
00000350: d5df 423f 44ee c53d c602 f73d 5ee0 243e
00000360: 3d92 c8bd b303 9abe 5f19 0fbd 397d 94bd
00000370: 9377 cc3d 0488 90be bc12 2cbf 1a60 28bf
00000380: a7fa 89be 2c3e 1b3e acfe aebe 8c6b a83e
00000390: 4f6a 06bd a2a1 d3bd 13a3 7cbf 82c1 98be
000003a0: 485f 283f ecd0 de3e 7a41 4fbd 89b9 023e
000003b0: 649a ce3d 4a02 55be b48b f63d 1117 a8bd
000003c0: ca19 a0be e1bd a53d 48a9 193f 4849 943e
000003d0: ebd9 38be 947a 93be 05da 8e3e 58e7 4bbd
000003e0: b8c7 24be 5f48 e53d 356b bcbc 6738 0e3e
000003f0: 160a b4bd f912 a23d 2525 aa3e 1630 8bbe

arith.constant5 f4 [32]
-1.5138211 -1.1600541 -1.8038971 -0.8467579 -0.3255704 -1.4746981 -1.3410438 -0.15750511
-1.6668746 -0.5600336 -1.0786883 -1.1985031 -0.09885429 -1.1569827 -1.2590492 -1.4415472
-0.9316279 -0.6095988 -0.102380104 -0.6990491 -1.2785857 -1.1196501 -1.5866439 -1.3149686
-0.24409997 -1.4350436 -1.321534 -1.5707396 -1.1810026 -0.42544362 0.15751113 -1.684874
00000000: e4c4 c1bf a77c 94bf 1ae6 e6bf 20c5 58bf
00000010: 2ab1 a6be e8c2 bcbf 53a7 abbf 0549 21be
00000020: 265c d5bf 5d5e 0fbf 7512 8abf 8d68 99bf
00000030: 1e74 cabd 0218 94bf 8628 a1bf 9e84 b8bf
00000040: 2b7f 6ebf ab0e 1cbf a9ac d1bd e2f4 32bf
00000050: b2a8 a3bf b250 8fbf 2617 cbbf e450 a8bf
00000060: 58f5 79be 82af b7bf 0728 a9bf ff0d c9bf
00000070: 182b 97bf bfd3 d9be 994a 213e f4a9 d7bf

arith.constant18 f4 [256, 42]
3.9831252 0.38988775 0.38498616 0.40673926 1.7065492 1.0806712 -0.46336642 2.476006
0.008214085 2.1826894 0.13334069 0.61343884 0.32862315 0.74447626 -0.22703905 0.35457835
0.25633532 -0.011842695 -0.017963745 -0.03853497 0.285963 0.7804768 0.58739305 2.8684628
1.2361691 1.9278864 2.2814422 1.92408 0.12653047 -0.784425 1.7398579 3.127471
0.6918123 0.04739671 -0.028922208 -0.18664694 0.1490992 0.1756535 0.0767931 0.2748848
-0.050273918 1.0182203 0.010483054 -0.008625828 1.0107847 0.00819258 -0.29808673 0.9667398
-0.48482516 0.62487626 2.500281 1.7746066 -0.019516338 -0.49317485 1.1066983 0.098936446
0.90840226 0.03383314 0.052153964 0.861675 0.7663749 -0.530957 0.37909555 -0.18513703
1.5774087 -2.4940684 0.8281744 0.1648009 0.107839525 2.188345 -0.0013323703 -2.6209958
1.0307404 -0.123653 -0.17054376 0.32772386 0.71919286 0.40746808 -1.6762457 0.670196
0.049652323 0.82064074 -0.023567162 0.6008547 0.080948934 -0.08234774 -0.7957302 -0.39723304
0.050322637 0.7194746 0.12960248 -0.317352 -1.5059288 0.40050656 0.20007241 0.5149262
0.35556224 0.19123662 0.014731998 0.3483128 0.41842547 -0.14516953 0.18364123 0.26394308
0.11185962 0.015216768 1.6096554 0.012531431 -0.3699777 0.0527225 -1.1063708 1.8580381
0.042803407 -1.1469265 1.3536589 1.022068 -0.43881983 0.37460083 0.16362216 -0.54794145
-0.10604817 0.09673649 -0.00016741351 -0.029963162 -0.1276361 -0.03372735 2.7545602 0.50816655
1.3625524 -0.06772888 -0.9380149 0.14967342 -1.3418689 0.05198423 -0.3838762 0.23730078
0.30781642 0.7786418 -0.59538907 0.1566251 0.28012955 0.32447383 0.5982736 0.332835
0.6511771 0.0053906143 0.6245144 1.4949898 -0.5034828 0.22817639 1.1394236 -0.23829009
-0.064939365 -1.1471858 -0.03738198 1.2940103 0.4123956 -1.5230887 1.1641153 0.2856639
-1.2162336 0.50149536 -1.9999034 -0.08851771 -0.16669242 0.15493049 0.045986846 -1.0303962
0.2747774 0.09638525 0.006666053 0.43465552 1.087067 0.5142584 0.65844804 0.52128154
1.0583429 0.13448636 -0.07135907 0.1080206 0.75656974 0.06406671 0.082598105 0.27614036
0.030474506 -0.013374493 -0.09926973 -0.06962731 0.120765775 0.045916002 2.4219465 0.20132242
0.4784135 0.3824653 0.2784636 3.0804436 0.26660186 -2.673764 -2.1750464 -0.2361597
3.7331407 0.65416855 -0.04804649 0.30706638 0.09574121 0.728194 0.21819273 0.5723087
0.060696814 0.059484977 0.36250123 -1.7297431 -0.042587094 0.6567679 0.34657907 0.1658926
0.098021105 0.65192825 -0.38386104 -0.0672472 0.5498946 -2.8220217 -1.5667655 -0.03329734
-0.83865154 -0.14674953 0.06933472 -0.17414887 0.46958742 0.097129464 -0.11849402 0.10557548
0.04029567 -0.092171274 -0.033048812 1.1516144 1.093504 -0.11402725 -0.09589809 0.037091743
2.1810608 0.8472743 1.2685717 0.19532686 0.94897693 -0.45397764 -0.023481477 -0.0028924488
-0.07981342 -0.2753196 -0.1152831 -0.81286365 0.91251236 0.67487687 0.43484524 1.0255458
00000000: 86eb 7e40 5e9f c73e e81c c53e 2140 d03e
00000010: 3470 da3f 6f53 8a3f 5d3e edbe e276 1e40
00000020: 5f94 063c 2fb1 0b40 768a 083e 540a 1d3f
00000030: 4b41 a83e ff95 3e3f ed7c 68be 4b8b b53e
00000040: 623e 833e dd07 42bc b428 93bc d8d6 1dbd
00000050: be69 923e 54cd 473f 645f 163f e594 3740
00000060: ca3a 9e3f fbc4 f63f 2603 1240 4148 f63f
00000070: 3491 013e 14d0 48bf aab3 de3f 7c28 4840
00000080: 9c1a 313f 0d23 423d 44ee ecbc 6020 3fbe
00000090: 76ad 183e 83de 333e b345 9d3d b3bd 8c3e
000000a0: 06ec 4dbd 0b55 823f 1ec1 2b3c 5853 0dbc
000000b0: 6561 813f 2c3a 063c d39e 98be 427c 773f
000000c0: 013b f8be e4f7 1f3f 9b04 2040 4f26 e33f
000000d0: bae0 9fbc 6a81 fcbe 4aa8 8d3f 319f ca3d
000000e0: 0d8d 683f 9e94 0a3d 659f 553d bc96 5c3f
000000f0: 2531 443f ccec 07bf d018 c23e 9094 3dbe
00000100: 87e8 c93f d19e 1fc0 3d03 543f 91c1 283e
00000110: f8da dc3d d80d 0c40 eea2 aeba 65be 27c0
00000120: 4def 833f c93d fdbd 06a3 2ebe 6ccb a73e
00000130: 061d 383f a89f d03e 388f d6bf f791 2b3f
00000140: 3c60 4b3d 8315 523f ec0f c1bc 9dd1 193f
00000150: 8ec8 a53d efa5 a8bd f9b4 4bbf 2162 cbbe
00000160: 1c1f 4e3d 7d2f 383f 83b6 043e f67b a2be
00000170: 46c2 c0bf 320f cd3e c8df 4c3e 34d2 033f
00000180: 410c b63e 88d3 433e 7a5e 713c 0e56 b23e
00000190: dd3b d63e 52a7 14be 720c 3c3e 8c23 873e
000001a0: a816 e53d c04f 793c 3009 ce3f a250 4d3c
000001b0: b86d bdbe 8cf3 573d 8f9d 8dbf 31d4 ed3f
000001c0: a052 2f3d 7dce 92bf b244 ad3f 20d3 823f
000001d0: feac e0be aecb bf3e 918c 273e e445 0cbf
000001e0: c82f d9bd c81d c63d b98b 2fb9 4e75 f5bc
000001f0: 0ab3 02be b125 0abd b74a 3040 3417 023f
00000200: 1e68 ae3f 70b5 8abd bf21 70bf fd43 193e
00000210: 5cc2 abbf 6aed 543d 6c8b c4be fafe 723e
00000220: 1d9a 9d3e 1255 473f 6b6b 18bf 5562 203e
00000230: 246d 8f3e 6f21 a63e 7528 193f 5969 aa3e
00000240: 8bb3 263f c0a3 b03b 2de0 1f3f d35b bf3f
00000250: 40e4 00bf 12a7 693e a2d8 913f 5102 74be
00000260: eefe 84bd fcd6 92bf d91d 19bd 21a2 a53f
00000270: 8425 d33e 92f4 c2bf bb01 953f 8a42 923e
00000280: 8bad 9bbf 0062 003f d6fc ffbf c648 b5bd
00000290: 6bb1 2abe 19a6 1e3e b45c 3c3d 06e4 83bf
000002a0: a0af 8c3e a165 c53d e86e da3b 2b8b de3e
000002b0: 0325 8b3f 70a6 033f 0d90 283f b572 053f
000002c0: c877 873f cbb6 093e b424 92bd e839 dd3d
000002d0: 8eae 413f 6835 833d 3229 a93d 4562 8d3e
000002e0: aca5 f93c b120 5bbc ee4d cbbd c398 8ebd
000002f0: 0c54 f73d 6b12 3c3d 2c01 1b40 7727 4e3e
00000300: 9df2 f43e 7ed2 c33e c892 8e3e fd25 4540
00000310: 0a80 883e f31e 2bc0 f633 0bc0 d9d3 71be
00000320: c7eb 6e40 9777 273f 65cc 44bd ce37 9d3e
00000330: f813 c43d ec6a 3a3f ea6d 5f3e d382 123f
00000340: 399d 783d 85a6 733d c399 b93e 3968 ddbf
00000350: ce6f 2ebd f121 283f d072 b13e c0df 293e
00000360: 4abf c83d c5e4 263f 6f89 c4be e6b8 89bd
00000370: e4c5 0c3f 019c 34c0 c68b c8bf cb62 08bd
00000380: deb1 56bf 8245 16be 5dff 8d3d 1554 32be
00000390: c36d f03e d0eb c63d feac f2bd f537 d83d
000003a0: 130d 253d 4bc4 bcbd 315e 07bd 1a68 933f
000003b0: f0f7 8b3f 1e87 e9bd 3866 c4bd 83ed 173d
000003c0: 8096 0b40 f8e6 583f 8f60 a23f c403 483e
000003d0: 27f0 723f c26f e8be 3a5c c0bc 3d8f 3dbb
000003e0: 3875 a3bd b1f6 8cbe 8c19 ecbd d517 50bf
000003f0: 699a 693f bbc4 2c3f 09a4 de3e 1645 833f

arith.constant19 f4 [256, 64]
-0.058853745 0.10649975 0.0074574947 -0.007923201 -0.008302847 0.08971479 -0.0247721 -0.16871664
0.0757212 0.03273224 0.024029516 0.029080695 -0.068790875 -0.09045103 0.023384877 0.08330435
-0.038758956 0.05485195 0.087928705 -0.16951485 0.0018851832 0.06820273 -0.009744301 -0.01473134
0.10108195 -0.01064375 0.019444425 0.036370732 0.047132067 0.02858485 0.04408905 -0.03153432
-0.09080482 0.07990749 0.000486715 0.025607593 -0.109353125 -0.07308578 -0.03691032 0.09156644
0.091248 -0.092635706 0.027819406 0.07401762 0.022097636 -0.010989894 0.0487313 -0.06132244
0.018083965 0.048363686 0.014769876 -0.0019065463 -0.07175758 0.04118115 0.032760207 -0.00082841393
0.01344391 0.06328873 0.06284065 -0.041218758 0.07193862 0.063640565 -0.063253656 0.018005982
0.039036844 -0.0022210479 -0.04153797 -0.035607602 -0.021904692 0.0016171515 0.0018325304 0.098184556
-0.021200733 0.00028622756 -0.07048108 0.02648567 -0.045022964 -0.062451214 -0.02317201 0.107577085
0.09538945 0.11105559 0.1021792 -0.049751732 -0.03576536 0.042969614 0.04422935 0.0032083902
-0.029783063 -0.054759223 0.008481236 0.065562814 0.018619943 -0.09480418 -0.07821798 -0.026258897
0.024664903 -0.03719799 -0.06790302 -0.0060701515 0.044691764 0.1290333 0.037745994 0.026468258
0.05728004 -0.001161641 -0.010571829 0.08391941 0.014843474 0.033282887 0.036440026 0.105049945
-0.03456803 -0.055793673 0.015228115 0.01619946 -0.027158875 0.042050317 0.058707327 0.015126388
-0.13389686 0.0016358278 0.005818914 0.0011299098 -0.092623875 -0.10171777 0.09521915 0.06686802
-0.06561362 0.037338227 -0.044790864 -0.06204404 0.023545282 -0.03168053 0.048833746 0.047731504
0.018911533 0.091241956 0.092089854 -0.031174222 0.014833902 0.030881878 -0.004174742 0.008594124
-0.005056504 0.07819863 -0.0034254808 0.11510353 0.07166205 0.0048384992 0.0012017884 0.0009875449
-0.027084287 -0.0145432465 0.13400625 -0.0364173 0.01831299 0.004327898 0.038943637 0.07581644
-0.02771746 0.13418025 0.0679347 -0.042305145 0.043572433 -0.016132984 -0.04712315 0.07209697
0.029984768 -0.09473769 0.053838663 0.027864326 0.042904157 -0.005564814 -0.08556443 0.019654885
-0.10734001 0.08013533 -0.03022805 0.20541985 0.09367645 -0.07802793 0.07974934 0.1093866
0.04969181 0.018992882 -0.028219407 -0.039426085 -0.018563505 0.09627039 -0.052735247 0.07290883
0.10770787 0.089031056 -0.004544392 -0.08223176 -0.0138601735 0.10734829 0.09967984 0.0022333302
-0.07052178 0.022826029 0.061083373 -0.06637521 -0.004720157 0.09236106 0.07196258 0.059364583
-0.057705633 -0.122486256 -0.04643959 -0.04888345 -0.007709639 0.019038264 -0.005785724 -0.04413586
0.0876582 0.031742312 0.0060566347 -0.0030836975 -0.038789153 -0.022800792 0.039141774 -0.05636902
0.07875176 0.069436505 -0.10662939 -0.013702292 0.06976324 0.056831323 -0.02042841 -0.06237775
-0.02376545 -0.011304899 -0.063108 0.053699188 0.0041994816 0.046123873 -0.07149395 0.045248173
0.021637859 -0.0029764245 0.09507081 0.013109256 0.09698267 0.00528088 0.16059098 -0.08725359
0.0023322888 -0.029193025 0.010578014 -0.06599379 0.029680716 0.09009272 0.007433526 0.08297448
00000000: a010 71bd 8a1c da3d 005e f43b 50d0 01bc
00000010: aa08 08bc 63bc b73d dcee cabc 0ec4 2cbe
00000020: b713 9b3d 3e12 063d 8cd9 c43c a33a ee3c
00000030: 3be2 8cbd 643e b9bd a491 bf3c 799b aa3d
00000040: b6c1 1ebd 70ac 603d f713 b43d 4d95 2dbe
00000050: 4018 f73a dfad 8b3d 90a6 1fbc b85b 71bc
00000060: 0e04 cf3d 2063 2ebc ea49 9f3c 7af9 143d
00000070: 8e0d 413d c62a ea3c b896 343d 222a 01bd
00000080: e1f7 b9bd 8aa6 a33d c82d ff39 04c7 d13c
00000090: 88f4 dfbd ffad 95bd 472f 17bd 3087 bb3d
000000a0: 3be0 ba3d cab7 bdbd 86e5 e33c 8d96 973d
000000b0: 1a06 b53c f50e 34bc 799a 473d 3d2d 7bbd
000000c0: d324 943c 0019 463d 5afd 713c 14e5 f9ba
000000d0: a3f5 92bd 91ad 283d 912f 063d eb29 59ba
000000e0: d843 5c3c 869d 813d 99b2 803d 00d5 28bd
000000f0: 8e54 933d fc55 823d 228b 81bd 4881 933c
00000100: 19e5 1f3d 008f 11bb b823 2abd 47d9 11bd
00000110: 7871 b3bc 9af6 d33a 8431 f03a fc14 c93d
00000120: 29ad adbc d010 9639 6258 90bd 7af8 d83c
00000130: 006a 38bd d8cc 7fbd 3ad3 bdbc 6051 dc3d
00000140: 8b5b c33d 1d71 e33d 5443 d13d 79c8 4bbd
00000150: b37e 12bd e800 303d d629 353d db43 523b
00000160: 9cfb f3bc 354b 60bd e2f4 0a3c cc45 863d
00000170: da88 983c b228 c2bd c030 a0bd e61c d7bc
00000180: 0d0e ca3c eb5c 18bd bd10 8bbd 1fe8 c6bb
00000190: b60e 373d 4e21 043e 8b9b 1a3d f6d3 d83c
000001a0: 7a9e 6a3d 3442 98ba 7735 2dbc f1dd ab3d
000001b0: 0b32 733c a353 083d 2342 153d 6d24 d73d
000001c0: 3597 0dbd e887 64bd 587f 793c bbb4 843c
000001d0: 4a7c debc f43c 2c3d 1877 703d abd4 773c
000001e0: 421c 09be 4669 d63a 97ac be3b 7b19 943a
000001f0: 96b1 bdbd 6851 d0bd 4202 c33d 1af2 883d
00000200: 6f60 86bd f8ef 183d a076 37bd e421 7ebd
00000210: 09e2 c03c 72c3 01bd e505 483d 1c82 433d
00000220: 5cec 9a3c 10dd ba3d 9b99 bc3d 1561 ffbc
00000230: e509 733c fefb fc3c 46cc 88bb 5ece 0c3c
00000240: 08b1 a5bb 9a26 a03d 087e 60bb 66bb eb3d
00000250: 8ec3 923d 468c 9e3b 5485 9d3a 8270 813a
00000260: dedf ddbc cc46 6ebc ef38 093e 4f2a 15bd
00000270: 2005 963c 0ad1 8d3b 5d83 1f3d a645 9b3d
00000280: ba0f e3bc 8c66 093e 5921 8b3d 2948 2dbd
00000290: 0279 323d 5229 84bc 3404 41bd 94a7 933d
000002a0: 9ea2 f53c d605 c2bd ee85 5c3d ba43 e43c
000002b0: 45bc 2f3d 0b59 b6bb 673c afbd 4803 a13c
000002c0: 14d5 dbbd fe1d a43d d1a0 f7bc 9559 523e
000002d0: 70d9 bf3d 1bcd 9fbd 9f53 a33d 1506 e03d
000002e0: a489 4b3d f696 9b3c 632c e7bc 3f7d 21bd
000002f0: 7e12 98bc 6929 c53d ea00 58bd 3a51 953d
00000300: f295 dc3d ea55 b63d 20e9 94bb 2069 a8bd
00000310: c815 63bc 6cd9 db3d f224 cc3d 105d 123b
00000320: b96d 90bd a7fd ba3c 8f32 7a3d baef 87bd
00000330: 8cab 9abb cc27 bd3d 1e61 933d 4728 733d
00000340: be5c 6cbd 13da fabd 7137 3ebd 033a 48bd
00000350: 24a1 fcbb 22f6 9b3c 2c96 bdbb cec7 34bd
00000360: 2486 b33d 3a04 023d bc76 c63b dc17 4abb
00000370: 60e1 1ebd bac8 babc 2053 203d 34e3 66bd
00000380: 9a48 a13d ba34 8e3d 8260 dabd 947f 60bc
00000390: 08e0 8e3d f6c7 683d 7b59 a7bc d07f 7fbd
000003a0: c3af c2bc 2f38 39bc c43e 81bd aef3 5b3d
000003b0: ce9b 893b 63ec 3c3d 6c6b 92bd 2656 393d
000003c0: e141 b13c 1e10 43bb 7cb4 c23d 34c8 563c
000003d0: da9e c63d 3b0b ad3b f671 243e 03b2 b2bd
000003e0: 50d9 183b 3626 efbc 684f 2d3c c127 87bd
000003f0: f924 f33c 8882 b83d f094 f33b 86ee a93d

sequential_1/lstm_1/while/lstm_cell_1/add_1/ReadVariableOp f4 [256]
2.5127072 2.3678007 3.616732 2.292243 1.3250668 -0.5129288 3.3235264 2.8967373
0.5681555 3.7347088 -0.00552859 2.8547442 2.709512 0.10748492 1.8181049 2.3176503
3.1360168 3.5405807 1.281817 1.9567801 2.1383657 2.1898432 0.9757672 1.2048345
0.6584812 -1.0356385 2.7637064 0.23500445 0.34063292 0.48911813 0.7725568 0.8935158
-2.322208 3.4720392 -0.32071877 2.6970422 2.3033001 0.6440849 3.63299 1.335143
2.7417107 0.027583992 2.9328513 0.38489994 0.17338556 1.1175066 4.655822 3.1773202
1.0636117 2.029737 -0.2325346 1.6801485 1.4637829 0.01743839 0.78507745 2.785172
1.4740291 1.6836948 3.0005515 1.7147971 1.5109773 1.9657503 -1.0464383 2.1698644
1.0 1.0 1.0 1.0 1.0 1.0 1.0 1.0
1.0 1.0 1.0 1.0 1.0 1.0 1.0 1.0
1.0 1.0 1.0 1.0 1.0 1.0 1.0 1.0
1.0 1.0 1.0 1.0 1.0 1.0 1.0 1.0
1.0 1.0 1.0 1.0 1.0 1.0 1.0 1.0
1.0 1.0 1.0 1.0 1.0 1.0 1.0 1.0
1.0 1.0 1.0 1.0 1.0 1.0 1.0 1.0
1.0 1.0 1.0 1.0 1.0 1.0 1.0 1.0
1.489118 1.0790435 2.0724893 1.495999 0.24616791 -1.5529475 -1.6472819 0.80556077
-0.9509424 -2.5383034 -1.5843061 2.4854538 -1.3167838 -0.5115682 -1.7685286 -1.4947623
-1.959831 -0.15575385 -1.7814473 -0.666119 -1.0343467 2.1230855 -0.87190175 -1.7251278
0.39628568 -0.07825832 1.539751 0.9363477 1.0766107 0.31132323 0.8499371 -1.0888317
-0.098185495 -0.52700204 0.559829 -1.590395 -2.5434058 0.97999895 -0.5786633 1.0804257
0.94302005 -1.8188071 0.89766353 1.2188056 -0.64099336 1.2353959 0.61205924 0.060578153
0.6423858 0.42708364 1.433485 0.14915372 -0.038149234 1.1947286 -0.42064503 1.1592681
1.7049804 0.49503452 0.6372313 -2.4305816 2.0842788 2.4990916 -0.029322695 -1.35294
2.0040913 4.2238073 4.0516696 4.643834 1.3972725 1.5046614 3.3989003 3.6556666
1.5720836 4.2789087 0.08815586 3.7197046 2.973732 0.93483764 2.0175598 2.88829
4.604447 3.4969273 1.7870412 -0.4290023 0.95423317 1.1356143 -0.5312335 0.46724656
-0.85082614 -1.1995353 3.2923088 0.9887532 0.79687864 2.652159 -0.124606624 0.50520784
-1.4475001 2.8084574 0.73534477 2.1230974 3.3809114 1.7909229 2.4411266 1.6674345
3.514049 0.12336857 2.7188747 1.0540874 0.4868512 1.5336404 3.8229754 1.9751273
2.1798425 0.20966707 0.7584508 0.71655273 2.5021856 2.2833242 0.5305468 2.6344311
3.061839 2.2004395 2.6882102 -0.45964184 -0.31809476 1.0888106 0.22804399 2.7478113
00000000: 32d0 2040 0c8a 1740 8978 6740 1cb4 1240
00000010: ca9b a93f 4d4f 03bf a8b4 5440 2564 3940
00000020: a472 113f 7805 6f40 2d29 b5bb 21b4 3640
00000030: a568 2d40 0e21 dc3d a9b7 e83f 6254 1440
00000040: 80b4 4840 e098 6240 9412 a43f c577 fa3f
00000050: fcda 0840 6426 0c40 e1cb 793f 0438 9a3f
00000060: 3992 283f cd8f 84bf 91e0 3040 02a5 703e
00000070: 7067 ae3e b16d fa3e 48c6 453f 74bd 643f
00000080: 0e9f 14c0 e435 5e40 4035 a4be 579c 2c40
00000090: 4569 1340 bfe2 243f e882 6840 f7e5 aa3f
000000a0: 3078 2f40 d3f7 e13c d6b3 3b40 9b11 c53e
000000b0: fc8b 313e 750a 8f3f 7efc 9440 3759 4b40
000000c0: 6e24 883f 36e7 0140 8d1d 6ebe 1b0f d73f
000000d0: 3d5d bb3f f4da 8e3c d6fa 483f 4240 3240
000000e0: fcac bc3f 5083 d73f 0909 4040 797e db3f
000000f0: b467 c13f b59d fb3f b1f1 85bf 0fdf 0a40
00000100: 0000 803f 0000 803f 0000 803f 0000 803f
00000110: 0000 803f 0000 803f 0000 803f 0000 803f
00000120: 0000 803f 0000 803f 0000 803f 0000 803f
00000130: 0000 803f 0000 803f 0000 803f 0000 803f
00000140: 0000 803f 0000 803f 0000 803f 0000 803f
00000150: 0000 803f 0000 803f 0000 803f 0000 803f
00000160: 0000 803f 0000 803f 0000 803f 0000 803f
00000170: 0000 803f 0000 803f 0000 803f 0000 803f
00000180: 0000 803f 0000 803f 0000 803f 0000 803f
00000190: 0000 803f 0000 803f 0000 803f 0000 803f
000001a0: 0000 803f 0000 803f 0000 803f 0000 803f
000001b0: 0000 803f 0000 803f 0000 803f 0000 803f
000001c0: 0000 803f 0000 803f 0000 803f 0000 803f
000001d0: 0000 803f 0000 803f 0000 803f 0000 803f
000001e0: 0000 803f 0000 803f 0000 803f 0000 803f
000001f0: 0000 803f 0000 803f 0000 803f 0000 803f
00000200: 6b9b be3f 191e 8a3f aaa3 0440 e57c bf3f
00000210: 7113 7c3e fcc6 c6bf 22da d2bf 3b39 4e3f
00000220: f670 73bf 9073 22c0 8bca cabf ad11 1f40
00000230: 5f8c a8bf 22f6 02bf 255f e2bf 5f54 bfbf
00000240: bedb fabf f07d 1fbe 7706 e4bf c686 2abf
00000250: 7965 84bf a2e0 0740 f434 5fbf fdd0 dcbf
00000260: f5e5 ca3e e645 a0bd 9016 c53f 7cb4 6f3f
00000270: 61ce 893f c265 9f3e 7a95 593f d65e 8bbf
00000280: 7a15 c9bd 9be9 06bf f450 0f3f 1092 cbbf
00000290: 29c7 22c0 36e1 7a3f 4723 14bf 644b 8a3f
000002a0: c369 713f acce e8bf 47cd 653f d201 9c3f
000002b0: 2418 24bf 7421 9e3f eaaf 1c3f cc20 783d
000002c0: 6573 243f b5aa da3e 707c b73f c1bb 183e
000002d0: 5f42 1cbd deec 983f c95e d7be e662 943f
000002e0: cc3c da3f 2a75 fd3e 9721 233f a68e 1bc0
000002f0: d364 0540 1ef1 1f40 2636 f0bc 232d adbf
00000300: 0843 0040 6e29 8740 47a7 8140 4a9a 9440
00000310: d3d9 b23f bf98 c03f 9587 5940 71f6 6940
00000320: 093a c93f d2ec 8840 0f8b b43d a40f 6e40
00000330: a051 3e40 8551 6f3f b31f 0140 bed9 3840
00000340: a157 9340 a8cd 5f40 c4bd e43f 31a6 dbbe
00000350: a048 743f cf5b 913f ebfe 07bf f13a ef3e
00000360: becf 59bf 5f8a 99bf 30b5 5240 ee1e 7d3f
00000370: 3d00 4c3f f9bc 2940 c231 ffbd 4d55 013f
00000380: af47 b9bf c4bd 3340 8e3f 3c3f d4e0 0740
00000390: da60 5840 f63c e53f 6b3b 1c40 7e6e d53f
000003a0: 2ee6 6040 a9a8 fc3d 0b02 2e40 56ec 863f
000003b0: 8f44 f93e 544e c43f a1ab 7440 f9d0 fc3f
000003c0: 8a82 0b40 f7b2 563e d529 423f 0070 373f
000003d0: cf23 2040 fc21 1240 ead1 073f 859a 2840
000003e0: 2cf5 4340 00d4 0c40 a30b 2c40 2d56 ebbe
000003f0: 51dd a2be 255e 8b3f 5d84 693e 24dc 2f40
